saved_models/model_11_07/best_model_weights.pth (torch, 724123 bytes, 19 tensors)

nn_conv_1.weight f4 [6, 3, 60, 60]
0.12901108 0.18274166 0.045773324 -0.24930601 -0.071877174 0.17958191 -0.044553336 0.17729548
-0.09039941 0.11085899 -0.027699135 -0.006024629 -0.11145664 -0.39209116 -0.05937614 0.030970857
0.15377371 0.1120482 -0.2161972 -0.2265632 0.035825245 -0.11359357 0.12763396 0.23598473
-0.11430762 -0.21255054 0.219025 -0.38922086 -0.109368294 -0.08252922 -0.20005964 0.30680686
-0.08553225 0.007198074 -0.2769365 -0.26925415 -0.04629207 0.103310004 0.15961754 0.045059163
0.042907827 -0.27881706 0.07568782 -0.08425477 -0.18897952 0.055923827 0.16817598 0.0002959674
-0.047340177 0.009484083 0.26171353 0.22097775 0.17549418 0.013879199 -0.027588109 -0.090985894
-0.027408151 -0.18242334 -0.092973076 0.008140118 0.15687715 0.106802225 -0.097615324 0.069719546
0.12168021 -0.008555037 0.088436514 0.029858086 0.071277976 0.154811 -0.15258366 -0.111219056
0.10951294 0.17352729 0.27418822 0.03309624 0.07246615 -0.210714 0.008569783 -0.107930996
-0.21558666 0.20106333 0.25622857 -0.1953184 0.15295354 0.07205984 -0.019876404 0.08728719
0.1280466 -0.13227852 0.025930569 0.13086206 0.17905438 0.0717676 -0.2914707 -0.10987125
0.31071773 0.03674816 -0.17685485 -0.12036609 0.2116091 0.13276546 -0.16417372 0.06531091
-0.33089676 -0.03393724 -0.16662477 -0.17416583 0.039595272 0.033908933 -0.0821521 0.18477309
-0.08935051 0.21919905 0.4218262 -0.1873142 -0.1864086 0.006421809 0.0042541614 0.033580665
0.10562189 0.012961334 0.022680625 0.09845732 -0.19690926 -0.16681425 -0.038526904 -0.13087441
-0.044095337 -0.15884012 -0.064588346 0.08580281 -0.11192848 0.0084781945 0.28687632 0.04760855
0.039642226 -0.018268615 0.005263798 0.17046547 0.20625088 0.13930164 0.030017927 -0.0015882977
-0.07228543 -0.1320772 0.18249097 0.026532724 -0.098207705 -0.16166009 -0.21068233 -0.16787927
0.009776695 0.13589782 0.09110812 -0.18391353 0.13862993 -0.14332226 0.012838181 -0.085332915
-0.04976524 0.015243746 -0.28844035 -0.24266745 -0.07204348 0.03343354 -0.095479436 0.0027373084
-0.4791047 0.0070797745 0.20921947 -0.04998308 0.25641143 0.13024415 -0.18804175 0.2004129
-0.01887719 -0.12656663 0.20051569 -0.15616646 0.062207963 -0.047309067 0.23585226 0.061876018
0.12982138 0.11567626 -0.06211448 -0.06897837 -0.14694788 0.12624282 0.13604824 0.16271168
-0.14411578 0.017114367 -0.13262613 -0.12300924 -0.09303789 0.07462314 -0.17529409 -0.011167149
0.006300934 0.17012322 -0.3982523 -0.1333205 -0.0915898 0.09954451 -0.05891223 0.2270655
0.106642574 0.051970236 -0.022390965 -0.022752956 0.08573164 -0.04316506 0.042490996 0.07244381
-0.22223648 -0.10160937 0.22177757 -0.1695752 0.035743687 0.23640576 0.09105411 -0.13279529
-0.24094366 0.12620382 -0.14687006 -0.034540154 -0.03405223 -0.0069235866 0.036470234 0.2313473
0.053679805 0.14791638 0.14660901 -0.069388196 0.13123654 -0.18495537 -0.095588535 0.10291429
-0.05163602 0.09021926 0.038637735 -0.15643276 0.04756919 -0.24048813 0.32994553 -0.20685805
-0.22344089 -0.20567088 -0.10545248 -0.06988888 0.09102171 -0.030357668 0.015253534 -0.28806177
00000000: 7b1b 043e a120 3b3e cf7c 3b3d 134a 7fbe
00000010: 5734 93bd 52e4 373e 8f7d 36bd f28c 353e
00000020: 5323 b9bd 0a0a e33d 4ce9 e2bc 406a c5bb
00000030: 6143 e4bd 2cc0 c8be 6534 73bd 98b6 fd3c
00000040: db76 1d3e 8779 e53d cc62 5dbe 2f00 68be
00000050: 7ebd 123d bfa3 e8bd 7ab2 023e fba5 713e
00000060: 1d1a eabd d9a6 59be 1748 603e f547 c7be
00000070: 7cfc dfbd 1405 a9bd 6fdc 4cbe ca15 9d3e
00000080: 882b afbd d2dd eb3b 9fca 8dbe aedb 89be
00000090: c19c 3dbd 3294 d33d c872 233e f58f 383d
000000a0: 1ec0 2f3d 1cc1 8ebe 3702 9b3d c48d acbd
000000b0: d983 41be 6210 653d 5336 2c3e 122c 9b39
000000c0: c6e7 41bd 2163 1b3c 51ff 853e fe47 623e
000000d0: bfb4 333e 9465 633c 7500 e2bc d056 babd
000000e0: 0f87 e0bc 2fcd 3abe ab68 bebd 215e 053c
000000f0: 67a4 203e 20bb da3d 8bea c7bd 1fc9 8e3d
00000100: 7933 f93d 6d2a 0cbc 341e b53d f298 f43c
00000110: 30fa 913d c686 1e3e e43e 1cbe d1c6 e3bd
00000120: 5248 e03d 23b1 313e 6662 8c3e ec8f 073d
00000130: 2269 943d 69c5 57be 4668 0c3c ed0a ddbd
00000140: c0c2 5cbe 8ce3 4d3e 6430 833e 8c01 48be
00000150: da9f 1c3e 1c94 933d d7d3 a2bc a0c3 b23d
00000160: a61e 033e 0574 07be 586c d43c b400 063e
00000170: 085a 373e e4fa 923d a63b 95be 2e04 e1bd
00000180: 6516 9f3e 3d85 163d 7019 35be 7f82 f6bd
00000190: 0eb0 583e abf3 073e 281d 28be bac1 853d
000001a0: 4d6b a9be c601 0bbd af9f 2abe 8758 32be
000001b0: a72e 223d 18e4 0a3d 5c3f a8bd 2835 3d3e
000001c0: 66fd b6bd b775 603e 9bf9 d73e 4bcf 3fbe
000001d0: e5e1 3ebe 0a6e d23b 7e66 8b3b e18b 093d
000001e0: 4a50 d83d c65b 543c b8cc b93c fea3 c93d
000001f0: 95a2 49be 5bd1 2abe 63ce 1dbd f103 06be
00000200: 509d 34bd fca6 22be e546 84bd 62b9 af3d
00000210: c23a e5bd 20e8 0a3c 74e1 923e 2f01 433d
00000220: e35f 223d 10a8 95bc f07b ac3b 808e 2e3e
00000230: 6e33 533e 17a5 0e3e 28e8 f53c 6d2e d0ba
00000240: 620a 94bd 3f3f 07be eade 3a3e 285b d93c
00000250: 1f21 c9bd 398a 25be 1cbd 57be 8be8 2bbe
00000260: 6e2e 203c cc28 0b3e e596 ba3d d453 3cbe
00000270: 01f5 0d3e 12c3 12be 3c57 523c 06c3 aebd
00000280: a3d6 4bbd e8c0 793c 74ae 93be d17d 78be
00000290: 888b 93bd 9cf1 083d b98a c3bd 6a64 333b
000002a0: 364d f5be 74fd e73b a13d 563e 0fbb 4cbd
000002b0: 5c48 833e b95e 053e 048e 40be 0a39 4d3e
000002c0: 56a4 9abc af9a 01be fc53 4d3e 1aea 1fbe
000002d0: c7cd 7e3d 27c7 41bd 4183 713e b571 7d3d
000002e0: e5ef 043e ade7 ec3d c16b 7ebd 8844 8dbd
000002f0: 8179 16be cc45 013e 3b50 0b3e e49d 263e
00000300: 1693 13be 6e33 8c3c 25cf 07be 45ec fbbd
00000310: a68a bebd 04d4 983d 4b80 33be 6bf6 36bc
00000320: 1178 ce3b c834 2e3e bae7 cbbe 2b85 08be
00000330: 6f93 bbbd fedd cb3d f34d 71bd dc83 683e
00000340: 6c67 da3d bede 543d 426d b7bc 6864 babc
00000350: 1294 af3d d9cd 30bd 0a0b 2e3d 6c5d 943d
00000360: f691 63be 9318 d0bd a919 633e 1fa5 2dbe
00000370: f967 123d 5a14 723e 947a ba3d 7dfb 07be
00000380: efb9 76be 933b 013e 1b65 16be fa79 0dbd
00000390: 5a7a 0bbd 41df e2bb d061 153d 4ee6 6c3e
000003a0: 5bdf 5b3d 6477 173e ac20 163e 661b 8ebd
000003b0: df62 063e f164 3dbe ecc3 c3bd bac4 d23d
000003c0: 4b80 53bd e0c4 b83d 9a42 1e3d e92f 20be
000003d0: e9d7 423d 8542 76be 9fee a83e 99d2 53be
000003e0: b0cd 64be 639b 52be 78f7 d7bd e721 8fbd
000003f0: 9769 ba3d a5b0 f8bc f5e9 793c d57c 93be

nn_conv_1.init_weight f4 [3, 45, 60]
0.21218589 0.12819885 0.15162209 0.18150125 0.16144302 -0.17240568 -0.0017221557 0.23118941
-0.23366024 0.16887872 -0.2262477 0.2223062 -0.05222702 -0.23090366 -0.12473316 -0.13675745
0.08022059 -0.19947487 -0.23232295 -0.100913815 0.05392755 0.0628635 -0.016061295 -0.21192464
-0.14374195 0.21531968 -0.18331897 -0.20931621 -0.11548517 -0.0045547904 0.039104026 0.2189216
-0.20480944 -0.20242423 -0.23307927 0.06363131 -0.14757462 -0.19674616 0.054200944 -0.05616304
-0.21817137 -0.10434684 -0.16823758 0.1388478 -0.18619616 0.027829425 0.10667184 0.2012722
-0.0391024 0.23707494 0.0686861 0.19721405 -0.18323243 0.04133738 -0.13145177 -0.17270774
0.12764171 -0.028600996 -0.00051393383 0.15111294 -0.17291532 -0.08963115 -0.17997131 -0.12901242
0.14594635 -0.16699006 0.072985105 0.11507103 0.08453019 0.14139171 0.008201199 -0.15748098
0.0809866 -0.14113016 0.027681444 -0.024506139 -0.010086383 0.17482935 0.0078114243 -0.11466775
-0.12514174 -0.17425017 -0.1718044 -0.052753437 0.17171873 0.21425527 -0.20038265 0.064640224
-0.12193894 0.12430454 0.18106164 -0.11896128 0.19489649 -0.13916562 -0.13528295 -0.07708367
0.07830044 0.11689899 -0.17552663 -0.14818618 0.041347153 0.15236542 0.018618084 0.10871669
-0.204582 0.102144375 0.15574348 0.14799137 0.10188628 -0.030044172 0.18605542 0.15310918
-0.14355326 0.16043416 0.09683423 0.18711121 0.14188626 -0.0027083615 -0.028078884 -0.19495094
0.15650436 0.23202531 0.1856135 -0.2217326 -0.20227852 -0.20238604 -0.1159121 0.068294674
-0.037977163 -0.18468411 0.087806635 -0.10571122 0.21313944 0.16949542 0.14238325 -0.06257976
0.22164096 -0.108533114 -0.08233286 0.07548342 -0.12997916 0.109685935 0.021029826 0.08113698
0.03107352 -0.19775456 0.0009470232 -0.14268087 -0.20134526 0.08454618 0.17115581 0.08246374
0.12764418 -0.20155278 -0.15171619 -0.18864056 -0.2329642 -0.22517353 -0.1599565 0.23611201
-0.08532085 -0.043341395 -0.17826323 -0.18228368 0.052024983 -0.030221561 -0.07298117 -0.062404934
0.18867539 -0.21108441 0.20037962 0.065350845 -0.1806857 -0.06661637 -0.21273214 0.04984805
-0.14754897 0.19318998 0.14932954 0.13569623 -0.19247828 0.0985307 0.16311663 -0.22048162
-0.16828825 0.23418759 0.051249117 0.08614836 -0.031322096 0.033617638 0.08788632 -0.107573666
-0.054893605 0.096343555 -0.046636626 -0.007481976 -0.13743398 -0.12984487 0.17131019 0.017137507
0.063703954 -0.039455127 0.07014645 -0.10638135 0.016121766 -0.023628715 0.047268603 0.19295128
0.05257479 -0.099307425 0.24282722 -0.0781883 -0.12367812 -0.019771755 0.19303904 0.07147947
0.10735911 0.24093704 -0.06120749 -0.15596737 -0.070132695 0.2455247 -0.024886917 0.1451046
-0.18602425 0.23866948 0.10560874 -0.07499801 0.13915843 0.03634716 0.18259782 0.08933217
-0.09219281 -0.0028251552 -0.016009618 -0.18512744 0.11234846 0.18973711 -0.014115972 -0.07318638
0.0664191 0.49823102 0.17488013 -0.42454728 0.17979652 -0.11008337 0.1901936 -0.17340559
-0.1904392 -0.022648985 0.07006213 -0.13734671 0.16486037 -0.088603 -0.0070544714 0.13692285
00000000: 4247 593e 8f46 033e d242 1b3e 77db 393e
00000010: 5251 253e 1d8b 30be f5b9 e1ba ebbc 6c3e
00000020: a144 6fbe 8bee 2c3e 7aad 67be 3da4 633e
00000030: 00ec 55bd 0272 6cbe 1974 ffbd 250a 0cbe
00000040: b14a a43d 2443 4cbe 11e6 6dbe e7ab cebd
00000050: 22e3 5c3d 94be 803d fa92 83bc c602 59be
00000060: 1731 13be c37c 5c3e f8b7 3bbe fd56 56be
00000070: 7d83 ecbd 5a40 95bb 8b2b 203d fc2c 603e
00000080: 91b9 51be 4c48 4fbe 55ac 6ebe 2251 823d
00000090: cd1d 17be d377 49be cf01 5e3d 370b 66bd
000000a0: 5168 5fbe ccb3 d5bd 7946 2cbe 1e2e 0e3e
000000b0: 35aa 3ebe 89fa e33c c476 da3d 4d1a 4e3e
000000c0: d729 20bd c6c3 723e 4cab 8c3d 7bf2 493e
000000d0: 48a1 3bbe 6251 293d 4b9b 06be 4cda 30be
000000e0: 82b4 023e a34c eabc 84b9 06ba 5abd 1a3e
000000f0: b710 31be 8990 b7bd 664a 38be d51b 04be
00000100: f672 153e 71ff 2abe 3779 953d 5caa eb3d
00000110: 2a1e ad3d fdc8 103e 525e 063c b242 21be
00000120: 4ddc a53d 6d84 10be 32c4 e23c 19c1 c8bc
00000130: 5b41 25bc 7706 333e faf6 ff3b edd6 eabd
00000140: 2825 00be a36e 32be 7eed 2fbe fd13 58bd
00000150: 09d7 2f3e bc65 5b3e 1c31 4dbe 1862 843d
00000160: 1fbb f9bd 6193 fe3d 3968 393e f9a1 f3bd
00000170: f292 473e 6f81 0ebe 9d87 0abe 0bde 9dbd
00000180: fb5b a03d bd68 ef3d 41bd 33be 1ebe 17be
00000190: a25b 293d ae05 1c3e f484 983c dba6 de3d
000001a0: f27d 51be 1231 d13d 387b 1f3e 0d8b 173e
000001b0: c1a9 d03d 321f f6bc 5085 3e3e a7c8 1c3e
000001c0: a0ff 12be da48 243e 0651 c63d 159a 3f3e
000001d0: a24a 113e c47e 31bb b005 e6bc 38a1 47be
000001e0: ae42 203e 0b98 6d3e 7711 3e3e df0d 63be
000001f0: 1a22 4fbe 493e 4fbe 5363 edbd 14de 8b3d
00000200: f18d 1bbd d51d 3dbe f7d3 b33d 207f d8bd
00000210: 3a41 5a3e 3590 2d3e eacc 113e d129 80bd
00000220: d9f5 623e 9c46 debd 219e a8bd 0d97 9a3d
00000230: 4219 05be 05a3 e03d be46 ac3c 252b a63d
00000240: e58d fe3c 2c80 4abe a741 783a ef1a 12be
00000250: 742d 4ebe 8c26 ad3d 7843 2f3e c0e2 a83d
00000260: 28b5 023e da63 4ebe 7d5b 1bbe fe2a 41be
00000270: 2b8e 6ebe e493 66be a3cb 23be 59c7 713e
00000280: b3bc aebd bf86 31bd a38a 36be 93a8 3abe
00000290: 2618 553d 3593 f7bc 2777 95bd 519c 7fbd
000002a0: 1f34 413e 8326 58be 5130 4d3e aad6 853d
000002b0: ac05 39be 2a6e 88bd 74d6 59be 782d 4c3d
000002c0: 1417 17be 98d3 453e d8e9 183e f4f3 0a3e
000002d0: 0719 45be 77ca c93d 0c08 273e efc5 61be
000002e0: c153 2cbe dfce 6f3e 98ea 513d 8d6e b03d
000002f0: 994b 00bd a6b2 093d befd b33d 954f dcbd
00000300: 1ed8 60bd c54f c53d 0c06 3fbd 5d2b f5bb
00000310: 7ebb 0cbe 0ef6 04be f06b 2f3e f563 8c3c
00000320: 3877 823d b39b 21bd f1a8 8f3d 77de d9bd
00000330: cb11 843c 0291 c1bc b99c 413d 0595 453e
00000340: aa58 573d b161 cbbd b3a7 783e 3021 a0bd
00000350: f44a fdbd 60f8 a1bc 07ac 453e d463 923d
00000360: 18df db3d 33b8 763e b4b4 7abd e9b5 1fbe
00000370: bba1 8fbd d46a 7b3e a6df cbbc 4d96 143e
00000380: 247d 3ebe c665 743e 6549 d83d 8f98 99bd
00000390: 8c7f 0e3e c2e0 143d ecfa 3a3e c9f3 b63d
000003a0: 95cf bcbd 3d26 39bb 9a26 83bc 0c92 3dbe
000003b0: f316 e63d 724a 423e ae46 67bc bee2 95bd
000003c0: bd06 883d 2318 ff3e c713 333e 435e d9be
000003d0: 941c 383e 6473 e1bd 1cc2 423e 3c91 31be
000003e0: 7e02 43be 5d8a b9bc bc7c 8f3d 9ea4 0cbe
000003f0: 28d1 283e 7d75 b5bd 3229 e7bb 8135 0c3e

nn_conv_1.root_weight f4 [7, 3, 45, 60]
0.20911463 0.11098336 0.11245865 -0.21068755 0.19857912 0.13599092 -0.23525581 -0.028097007
-0.09326051 0.010028792 0.19565666 0.18739003 0.16605245 -0.026222596 0.1208382 -0.1652037
0.0080165705 0.01938159 0.23694314 0.21738678 0.110910885 -0.122519776 0.1380619 -0.07124146
-0.05230721 -0.02509271 0.021703996 0.08911451 -0.14089237 0.10365882 0.14406562 0.066417694
0.21503921 -0.011759069 0.09295865 0.22327809 0.09314482 0.21192369 -0.041734677 0.21386875
-0.031729594 0.010655742 0.037248764 -0.18994066 -0.08324492 0.025466412 -0.14728136 -0.031748116
0.2066555 0.013329623 -0.10588693 -0.0013134594 -0.11985613 0.23091762 -0.15517628 0.14929788
-0.072070085 -0.06455947 -0.23396857 0.16754797 -0.22832903 -0.18843932 0.1051538 0.17929356
-0.09005346 0.032727372 -0.0021975338 -0.1324066 0.049095232 -0.0951062 0.042183384 0.11033469
0.08822653 -0.07780594 0.038493145 -0.061797503 0.121042095 0.008940226 -0.038226735 -0.00015915278
-0.044374134 -0.09998751 0.11854372 0.072409905 0.14594248 -0.08805313 0.23863487 0.07342369
0.1372542 -0.23767179 0.14190057 -0.12825982 -0.19457676 0.0808071 0.04883825 0.20769647
0.00032038582 -0.18109949 0.1241864 0.16452637 -0.010047399 0.01825045 -0.16009921 0.17801432
0.12936509 0.12086436 0.08333138 -0.08057038 0.2329969 0.080692 -0.073370636 0.023859013
-0.120089546 0.21568705 0.07797555 0.019847963 0.04534843 -0.022687722 0.015538983 -0.03999893
-0.0047086715 -0.06157882 0.22507827 0.18562093 -0.14204343 -0.103372574 -0.11569225 -0.21864618
0.03442257 -0.22761142 0.09678624 0.03032526 0.23432505 -0.09119472 -0.17190753 -0.054675896
-0.21544178 -0.14354943 0.10970335 0.12062433 -0.2102282 0.19132094 -0.21955895 -0.20342393
0.023209492 -0.1439799 -0.19601656 -0.10241381 -0.22461526 0.13607141 0.15449356 0.19038127
0.09175633 0.19447641 0.058349118 0.23011297 -0.08302874 0.06556366 -0.021238392 -0.1974048
0.0853379 -0.076657414 0.13091983 0.12963526 0.23510039 -0.16352104 0.18154258 -0.2234326
0.14956872 0.11060503 -0.18536946 0.06778949 -0.064308725 0.015909722 0.049279857 0.027163805
0.23342112 -0.121372394 -0.028804433 -0.02465734 0.19860043 -0.18674876 0.05886892 -0.13383797
-0.2625079 -0.034393247 -0.25713456 0.20488547 -0.00076982635 0.08830911 0.086366594 0.1991077
0.121008135 0.25195974 0.23826039 0.11130367 0.19485699 0.014895477 0.12537754 0.21333267
0.11825434 0.20128392 0.10023716 0.11551638 -0.1642809 -0.094456494 0.043857154 -0.21127166
0.00446591 0.103328496 -0.19916004 0.070040494 0.22214496 -0.005968008 -0.1356027 -0.1439156
-0.13564385 0.047020614 -0.027275903 0.027292449 -0.19386555 -0.11363092 0.11731597 0.1383502
0.15667103 0.039588787 -0.22655 -0.2330832 -0.20232388 -0.1808334 0.043528095 0.20904703
-0.07969792 0.124928534 -0.14609599 -0.049666494 -0.051636647 -0.13134554 -0.06670083 -0.08221818
0.16619621 0.2301468 0.060923863 -0.021104358 -0.0294012 -0.03276371 -0.16731042 -0.4173853
-0.015114016 -0.40134358 0.11089193 -0.36118028 0.22491767 0.00021005257 -0.06430546 -0.100651026
00000000: 2522 563e 3e4b e33d b850 e63d 7abe 57be
00000010: 5358 4b3e 3441 0b3e e6e6 70be b22b e6bc
00000020: 5eff bebd cd4f 243c 385a 483e 2ce3 3f3e
00000030: a709 2a3e c5d0 d6bc 057a f73d 292b 29be
00000040: ef57 033c 24c6 9e3c 39a1 723e a49a 5e3e
00000050: 3f25 e33d a6eb fabd 1960 0d3e 0be7 91bd
00000060: 1640 56bd 3a8f cdbc 94cc b13c ab81 b63d
00000070: 1746 10be 134b d43d f085 133e 0006 883d
00000080: 3d33 5c3e 1ca9 40bc 1b61 be3d 03a3 643e
00000090: b6c2 be3d 8602 593e fbf1 2abd 6900 5b3e
000000a0: e4f6 01bd 6c95 2e3c 2992 183d ce7f 42be
000000b0: 507c aabd f09e d03c edd0 16be 500a 02bd
000000c0: 809d 533e 7e64 5a3c 3fdb d8bd 6228 acba
000000d0: 2177 f5bd ab75 6c3e 88e6 1ebe 8be1 183e
000000e0: 7b99 93bd c137 84bd 7595 6fbe b291 2b3e
000000f0: 16cf 69be 3df6 40be e05a d73d bb98 373e
00000100: f36d b8bd 230d 063d 8004 10bb 9995 07be
00000110: 1518 493d 0ac7 c2bd 7cc8 2c3d 27f7 e13d
00000120: 1cb0 b43d b858 9fbd fdaa 1d3d 611f 7dbd
00000130: ebe4 f73d 077a 123c a393 1cbd 40e2 26b9
00000140: a7c1 35bd 40c6 ccbd 0dc7 f23d a54b 943d
00000150: f271 153e 3355 b4bd b35c 743e 295f 963d
00000160: 5d8c 0c3e 3c60 73be 624e 113e 8b56 03be
00000170: 213f 47be 317e a53d 9e0a 483d 62ae 543e
00000180: 75f9 a739 2572 39be 7055 fe3d 9a79 283e
00000190: d99d 24bc f881 953c 0cf1 23be 6349 363e
000001a0: 4878 043e bc87 f73d a4a9 aa3d 1502 a5bd
000001b0: bd96 6e3e d941 a53d 5843 96bd fa73 c33c
000001c0: 82f1 f5bd 11dd 5c3e a5b1 9f3d 3298 a23c
000001d0: 46bf 393d 9adb b9bc 3897 7e3c ebd5 23bd
000001e0: 334b 9abb 133a 7cbd eb7a 663e 6a13 3e3e
000001f0: d573 11be 00b5 d3bd 0ff0 ecbd c9e4 5fbe
00000200: aefe 0c3d f812 69be dd37 c63d ae6c f83c
00000210: e8f2 6f3e 4cc4 babd 8708 30be d5f3 5fbd
00000220: c59c 5cbe 9ffe 12be 26ac e03d e409 f73d
00000230: 1046 57be a3e9 433e 10d4 60be 5d4e 50be
00000240: d521 be3c 786f 13be 91b8 48be 55be d1bd
00000250: 8b01 66be 4e56 0b3e 8f33 1e3e 4ff3 423e
00000260: beea bb3d d324 473e 7cff 6e3d bca2 6b3e
00000270: f90a aabd 3d46 863d 23fc adbc 7c24 4abe
00000280: a3c5 ae3d 90fe 9cbd d90f 063e 1bbf 043e
00000290: 28be 703e 0f72 27be 4ce6 393e 84cb 64be
000002a0: 8b28 193e e484 e23d 7ed1 3dbe 37d5 8a3d
000002b0: 4bb4 83bd 1b55 823c add9 493d a186 de3c
000002c0: f205 6f3e 1792 f8bd 46f7 ebbc 31fe c9bc
000002d0: e95d 4b3e 113b 3fbe 8920 713d d20c 09be
000002e0: 6f67 86be efdf 0cbd 24a7 83be 7fcd 513e
000002f0: 2cce 49ba 68db b43d f8e0 b03d e4e2 4b3e
00000300: 1dd3 f73d de00 813e 88fa 733e 2ef3 e33d
00000310: 9788 473e 290c 743c f862 003e e173 5a3e
00000320: 552f f23d 5f1d 4e3e 2449 cd3d da93 ec3d
00000330: 4139 28be 6872 c1bd 8fa3 333d 9957 58be
00000340: c556 923b e49d d33d 9cf0 4bbe 6471 8f3d
00000350: f879 633e 488f c3bb 6fdb 0abe 9c5e 13be
00000360: 39e6 0abe b098 403d b771 dfbc 6a94 df3c
00000370: b184 46be 54b7 e8bd 5b43 f03d adab 0d3e
00000380: 5f6e 203e da27 223d b9fc 67be 5dad 6ebe
00000390: fe2d 4fbe 642c 39be 844a 323d 6d10 563e
000003a0: aa38 a3bd 88da ff3d 309a 15be 186f 4bbd
000003b0: f380 53bd 727f 06be 729a 88bd 0162 a8bd
000003c0: 572f 2a3e 9aab 6b3e 4d8b 793d 0ce3 acbc
000003d0: c9da f0bc 3d33 06bd 6c53 2bbe 87b3 d5be
000003e0: c7a0 77bc e87c cdbe 4f1b e33d 9fec b8be
000003f0: d150 663e 8f41 5c39 95b2 83bd 2022 cebd

nn_conv_1.bias f4 [7, 3, 1, 60]
0.038780965 -0.004180421 -0.015367284 -0.010939328 -0.01744706 0.008297556 -0.018248852 0.015458035
-0.0032452678 -0.004423514 -0.038068082 0.03176311 -0.010034052 0.030401053 0.007628426 0.017400423
0.042202204 0.000106020336 -0.043565445 -0.014067076 0.037485182 0.032418706 0.0023894852 0.0027027267
0.028804315 -0.009554651 0.022175306 0.002524899 0.0 0.026819993 0.03138143 0.033807654
-0.026722554 -0.014124566 -0.0043411865 0.014128193 0.003229 0.021169249 0.053722937 0.16585776
0.03950034 0.018685186 -0.0016847082 0.000867761 0.006621758 0.022395963 0.0078445235 -0.05364331
0.0025880807 -0.0021264197 0.041124526 -0.012173898 0.043663878 0.0046432302 -0.0051555526 0.0490663
0.027390819 -0.002679752 -0.055256553 0.06987297 0.011769536 0.015711365 0.0022238998 0.16348204
0.06207449 -0.0065258695 0.051335234 0.055767696 0.0049456134 0.0031453809 -0.008256021 -0.010828961
-0.0075481553 -0.001847806 0.0047243284 -0.004915513 -0.0004581513 -0.043023277 0.0068298574 -0.02118926
0.023488522 0.030643301 0.055451494 0.05614578 0.0049913237 0.004180088 0.031181015 0.014724021
-0.0041643563 0.024994925 0.005473175 0.029800834 -0.011540371 0.01631312 0.030343669 0.037133615
0.06267778 0.004141435 0.0260908 0.013727522 0.021874048 0.015472355 0.036801577 0.011448728
0.0 0.0 -0.007329395 0.03138554 0.0032074056 -0.0266994 -0.0039730547 0.10544619
0.03198457 0.013673086 -0.056046356 0.022080978 -0.005805355 0.0231339 -0.023578303 0.030707601
-0.011665099 -0.027537305 -0.005076925 -0.02291145 0.0013017718 0.04675152 0.011055685 0.016068554
0.100244395 0.026362626 0.018299645 -0.03666403 0.029362416 0.01649684 -0.012257067 -0.004287823
0.013938711 0.007847751 0.024055293 0.030859977 -0.03346686 0.0026541115 0.032274168 0.014382353
0.0098644905 0.012984276 0.0071870093 0.011412809 0.011378841 -0.04299626 0.018094499 0.023011606
0.025519693 0.0103165135 0.026721006 0.013523127 0.016634248 0.022449793 0.011841567 0.049217857
-0.027631106 0.026797846 0.036063094 0.19963259 -0.016499875 0.019802956 0.010013458 0.0
-0.05450707 0.022474792 0.025376126 -0.019825608 0.0020391338 0.015740734 0.007382037 0.01436241
0.031655658 0.007971016 0.018215114 0.0322842 0.01359708 0.022775915 -0.010846723 0.02011415
0.01081796 0.014482519 -0.01630998 -0.021952659 0.03164109 -0.03962652 0.008441163 -0.017557498
0.004123403 0.0097738225 0.046603557 0.0347528 0.01977098 0.016160285 -0.066942945 0.008527522
0.022286203 0.006614153 0.059193157 -0.0065826382 0.0088748615 -0.0106051285 0.016284637 -0.0604383
0.006365441 0.009738171 -0.03378715 0.012638433 0.018985793 -0.017517056 0.041320197 0.021794263
0.025329893 0.026489545 0.012950037 0.0013133273 -0.03917082 0.0753553 0.0040690443 0.10805531
0.037201196 0.06347101 0.013339686 0.03551575 -0.0012056609 -0.0018342682 0.022889445 0.015757991
0.0018388962 0.101621106 -0.012759101 0.029246554 0.02081159 -0.026447464 -0.019531082 0.020512126
0.008580509 0.010782249 0.015829368 -0.037531566 0.03278907 0.009835785 0.027484901 -0.023951493
-0.015623152 -0.052028917 0.023015749 0.036173463 -0.04583732 0.021133984 -0.006274634 0.040664412
00000000: cad8 1e3d eafb 88bb 10c7 7bbc de3a 33bc
00000010: 23ed 8ebc 79f2 073c 9e7e 95bc b343 7d3c
00000020: 8fae 54bb 20f3 90bb 47ed 1bbd 091a 023d
00000030: dd65 24bc a10b f93c e0f7 f93b 558b 8e3c
00000040: 38dc 2c3d 3c57 de38 ae71 32bd 9879 66bc
00000050: 108a 193d 7ac9 043d e998 1c3b 3b20 313b
00000060: 07f7 eb3c 1c8b 1cbc fda8 b53c c778 253b
00000070: 0000 0000 9ab5 db3c d089 003d e579 0a3d
00000080: 42e9 dabc b96a 67bc 8340 8ebb f079 673c
00000090: a19d 533b 226b ad3c 950c 5c3d 9ed6 293e
000000a0: 1ccb 213d ad11 993c 6dd1 dcba 747a 633a
000000b0: 55fb d83b bd77 b73c 5186 003c 16b9 5bbd
000000c0: ca9c 293b 675b 0bbb 3172 283d 0775 47bc
000000d0: e5d8 323d 3d26 983b e9ef a8bb bff9 483d
000000e0: b662 e03c c79e 2fbb b254 62bd 8f19 8f3d
000000f0: 03d5 403c 1fb5 803c d9be 113b d667 273e
00000100: d241 7e3d f6d6 d5bb e544 523d ab6c 643d
00000110: d00e a23b bc22 4e3b 4344 07bc f46b 31bc
00000120: 8456 f7bb 1532 f2ba 8ace 9a3b 5012 a1bb
00000130: 0734 f0b9 2d39 30bd ffcc df3b 1995 adbc
00000140: 006b c03c a907 fb3c 1b21 633d 1ef9 653d
00000150: 428e a33b 1ff9 883b 546f ff3c 053d 713c
00000160: 2775 88bb 28c2 cc3c 5258 b33b e120 f43c
00000170: d313 3dbc 18a3 853c 4993 f83c 6b19 183d
00000180: 355d 803d e0b4 873b 60bc d53c 67e9 603c
00000190: 3431 b33c c37f 7d3c 40bd 163d 7293 3b3c
000001a0: 0000 0000 0000 0000 6c2b f0bb 208e 003d
000001b0: 5633 523b b3b8 dabc 6630 82bb 2cf4 d73d
000001c0: 4102 033d 1405 603c dd90 65bd 2be3 b43c
000001d0: d93a bebb 4e83 bd3c 4927 c1bc 828e fb3c
000001e0: f91e 3fbc ea95 e1bc 555c a6bb cbb0 bbbc
000001f0: 37a0 aa3a 867e 3f3d e722 353c 33a2 833c
00000200: ef4c cd3d 6ff6 d73c 23e9 953c 062d 16bd
00000210: 7389 f03c 6224 873c ddd1 48bc de80 8cbb
00000220: 315f 643c da93 003c 9b0f c53c 10ce fc3c
00000230: 8c14 09bd 9af0 2d3b eb31 043d f6a3 6b3c
00000240: ac9e 213c 00bc 543c 0181 eb3b cafc 3a3c
00000250: 516e 3a3c d91c 30bd ea3a 943c d682 bc3c
00000260: ad0e d13c 9806 293c 03e6 da3c 1b90 5d3c
00000270: 8c44 883c a1e8 b73c 2203 423c aa98 493d
00000280: a15a e2bc 2887 db3c e5b6 133d 7c6c 4c3e
00000290: bf2a 87bc cf39 a23c 7d0f 243c 0000 0000
000002a0: ce42 5fbd 0e1d b83c 98e1 cf3c 5069 a2bc
000002b0: fda2 053b b6f2 803c 04e5 f13b 5050 6b3c
000002c0: 5da9 013d dd98 023c dd37 953c 703c 043d
000002d0: 49c6 5e3c 8e94 ba3c 74b6 31bc 6ec6 a43c
000002e0: d03d 313c 1648 6d3c 829c 85bc 10d6 b3bc
000002f0: 169a 013d 6b4f 22bd ce4c 0a3c bed4 8fbc
00000300: 9d1d 873b 6222 203c 5fe3 3e3d f458 0e3d
00000310: c0f6 a13c 9362 843c 6219 89bd 05b7 0b3c
00000320: 8e91 b63c 89bb d83b 8674 723d 2cb3 d7bb
00000330: de67 113c 22c1 2dbc 5c67 853c 278e 77bd
00000340: 3095 d03b d98c 1f3c 6564 0abd 6e11 4f3c
00000350: 1888 9b3c ee7f 8fbc 5e3f 293d e289 b23c
00000360: a380 cf3c 9a00 d93c 642c 543c f423 ac3a
00000370: 9571 20bd e153 9a3d 9e55 853b 1a4c dd3d
00000380: 4860 183d 17fd 813d b38e 5a3c f778 113d
00000390: 4407 9eba d46b f0ba a582 bb3c e716 813c
000003a0: 1e07 f13a ba1e d03d 8c0b 51bc 7896 ef3c
000003b0: 117d aa3c 5aa8 d8bc a6ff 9fbc 0c09 a83c
000003c0: 4395 0c3c 08a8 303c 97ac 813c b3ba 19bd
000003d0: d54d 063d 4626 213c 0428 e13c ec35 c4bc
000003e0: 40f8 7fbc 461c 55bd 868b bc3c a02a 143d
000003f0: eabf 3bbd 2d21 ad3c 729b cdbb ba8f 263d

nn_conv_2.weight f4 [6, 3, 20, 20]
-0.093571395 -0.015616773 -0.2580714 -0.29397795 -0.16165164 -0.31359455 0.2701276 -0.063230254
-0.09195462 -0.20070606 -0.03514321 0.29335153 0.064718485 -0.056926224 -0.22666456 -0.32528582
-0.10162502 -0.06485767 -0.36963943 0.0693381 -0.3284255 0.018870873 0.2060487 -0.3671238
0.03908066 -0.3332186 0.36172375 0.10612191 0.37108254 0.007694598 0.0002173034 0.007256512
-0.15380235 -0.06561289 -0.32565862 -0.12516272 0.111229226 -0.15953748 -0.040400077 -0.3695223
-0.2589072 -0.093806066 0.20657207 -0.3804539 0.03896481 -0.16120836 -0.2444271 -0.37263274
-0.2167478 -0.007953674 0.28450292 0.2252667 0.14204971 -0.026232284 0.030101713 0.057240445
0.34136423 0.3231941 -0.27818984 0.120492205 0.22441643 -0.26110065 0.12213989 0.121183105
0.26145983 -0.08815666 0.22283846 0.005893904 0.11887475 -0.27754688 -0.021519205 -0.033414084
-0.24119577 0.34003106 0.24578957 0.33154157 0.19596213 0.3123487 0.20185554 0.043143213
0.24914001 -0.11646239 -0.055690482 -0.2268845 -0.07568076 -0.039107602 -0.13485512 -0.3603239
0.32289824 0.16577812 0.33880875 0.30426246 0.072739266 -0.22999887 0.18539226 0.1664121
-0.17458054 0.22775969 -0.33293197 0.34020165 -0.16640165 -0.31343588 -0.22060041 -0.17474617
0.4127017 -0.33153784 0.4039923 -0.03819053 0.09546069 0.44839942 -0.21112165 0.35381463
0.2534696 -0.18034652 0.30155522 0.31595856 0.24913067 -0.18806225 -0.2320428 -0.27492198
-0.32206234 -0.0014144507 0.28720713 -0.0010482745 0.16283028 -0.10302961 -0.24128655 -0.18031383
-0.3791772 -0.29098088 0.13518383 -0.30166438 -0.09091249 -0.37174255 0.32726505 -0.03685208
0.32995617 -0.041415237 0.17370437 -0.01824739 -0.3718586 -0.24932063 -0.08822787 0.218707
-0.35252425 0.032422684 0.24964651 -0.056537982 0.07347465 0.8483039 -0.015032779 -0.32135168
0.35668138 -0.1528776 -0.39210355 -0.08544358 -0.29718056 -0.37258217 -0.12284975 0.007488475
0.36492398 -0.2645122 0.21640538 -0.11834021 -0.14318535 -0.26488099 -0.15081732 -0.04386245
0.12624396 -0.32899734 -0.07274956 0.029565664 0.05367881 -0.18244524 0.28754166 0.085268684
-0.21323507 -0.20911811 0.1055228 0.21412666 -0.13775995 0.08465532 -0.29417735 0.2140958
-0.2841504 0.07288069 0.32749054 -0.14582784 -0.24211267 -0.3963071 -0.0069396347 0.28327152
0.2857796 -0.3503997 0.06875139 0.07599212 0.24022533 0.07409942 0.19644023 0.094504565
-0.2604358 -0.05723474 -0.031531934 0.2596968 0.28836304 0.2533429 0.38100374 0.1741425
-0.055705745 -0.022186507 -0.16413593 0.30726293 0.15114672 0.023952708 -0.21889149 -0.06970874
0.25053865 -0.38248247 0.35470173 -0.26540086 -0.16573967 0.048630815 -0.15800235 0.2680842
0.20576422 -0.07550186 0.13390467 -0.2264169 0.13866736 -0.12680075 -0.28364217 0.33665767
-0.0015628187 -0.10364909 0.38330168 -0.335424 0.15707521 0.08423454 0.048829157 0.28957444
0.061030865 0.13796033 0.14895964 0.35090896 0.24993704 0.25314057 -0.23924242 -0.05007233
0.33055708 -0.014132076 0.22723341 -0.22378364 -0.06512284 0.31984946 0.32785204 0.04599155
00000000: 5ca2 bfbd 7edd 7fbc ef21 84be 4784 96be
00000010: 0288 25be 778f a0be 2a4e 8a3e dd7e 81bd
00000020: b452 bcbd e485 4dbe 54f2 0fbd 2c32 963e
00000030: 208b 843d 792b 69bd c11a 68be dd8b a6be
00000040: c720 d0bd 19d4 84bd 6141 bdbe 2201 8e3d
00000050: 6327 a8be 1797 9a3c 6efe 523e a7f7 bbbe
00000060: 0b13 203d a19b aabe db33 b93e 7256 d93d
00000070: 88fe bd3e f722 fc3b f0db 6339 09c8 ed3b
00000080: 5d7e 1dbe 0d60 86bd babc a6be a82a 00be
00000090: 26cc e33d cb5d 23be 8d7a 25bd 0732 bdbe
000000a0: 7c8f 84be 651d c0bd a187 533e dbca c2be
000000b0: 9199 1f3d ce13 25be 194b 7abe b8c9 bebe
000000c0: 23f3 5dbe 2050 02bc 5eaa 913e 50ac 663e
000000d0: 7b75 113e 16e5 d6bc de97 f63c f574 6a3d
000000e0: 4bc7 ae3e b279 a53e e66e 8ebe 9ec4 f63d
000000f0: 6ccd 653e fcae 85be 7b24 fa3d d92e f83d
00000100: 10de 853e 7b8b b4bd c42f 643e a621 c13b
00000110: 9b74 f33d a01a 8ebe 0b49 b0bc 35dd 08bd
00000120: 06fc 76be 8d18 ae3e 43b0 7b3e d1bf a93e
00000130: 4caa 483e 2bec 9f3e 38b3 4e3e f0b6 303d
00000140: 8f1e 7f3e d583 eebd b41b 64bd 6954 68be
00000150: 84fe 9abd 4b2f 20bd 7617 0abe 607c b8be
00000160: eb52 a53e bdc1 293e 5778 ad3e 4ac8 9b3e
00000170: 53f8 943d d384 6bbe 78d7 3d3e ef67 2a3e
00000180: 3ec5 32be d639 693e 0f76 aabe e92e ae3e
00000190: 3265 2abe ab7a a0be 13e5 61be a9f0 32be
000001a0: a34d d33e 54bf a9be 14d8 ce3e ac6d 1cbd
000001b0: e580 c33d 9c94 e53e 4630 58be 3127 b53e
000001c0: c4c6 813e c2ac 38be 7265 9a3e 52c5 a13e
000001d0: 1c1c 7f3e 6493 40be a19c 6dbe 93c2 8cbe
000001e0: 5be5 a4be 1765 b9ba d00c 933e 4166 89ba
000001f0: fbbc 263e 3001 d3bd d213 77be 30a4 38be
00000200: 8423 c2be 72fb 94be a16d 0a3e c173 9abe
00000210: 5430 babd 0a55 bebe 498f a73e 35f2 16bd
00000220: 04f0 a83e 06a3 29bd 8fdf 313e 8d7b 95bc
00000230: 4064 bebe e84d 7fbe d0b0 b4bd baf4 5f3e
00000240: 0f7e b4be a6cd 043d 56a3 7f3e 5f94 67bd
00000250: e179 963d 722a 593f 0c4c 76bc 3588 a4be
00000260: f19e b63e f28b 1cbe ccc1 c8be 0bfd aebd
00000270: 0d28 98be 17c3 bebe a698 fbbd e261 f53b
00000280: 51d7 ba3e 256e 87be 5f99 5d3e 5a5c f2bd
00000290: 2e9f 12be 7b9e 87be db6f 1abe 1da9 33bd
000002a0: 1946 013e 5772 a8be b9fd 94bd b133 f23c
000002b0: 50de 5b3d edd2 3abe a938 933e 59a1 ae3d
000002c0: 4b5a 5abe 0f23 56be 561c d83d 0544 5b3e
000002d0: f210 0dbe c55f ad3d 6a9e 96be ee3b 5b3e
000002e0: 297c 91be 7942 953d d7ac a73e e553 15be
000002f0: 62ec 77be c4e8 cabe e065 e3bb f708 913e
00000300: b451 923e 9767 b3be 87cd 8c3d c2a1 9b3d
00000310: a1fd 753e 70c1 973d a127 493e 9c8b c13d
00000320: d757 85be fa6e 6abd a127 01bd fbf6 843e
00000330: 52a4 933e 29b6 813e ec12 c33e 6952 323e
00000340: b52b 64bd 7ac0 b5bc 4013 28be 9151 9d3e
00000350: 35c6 1a3e 7838 c43c 1725 60be 75c3 8ebd
00000360: 9a46 803e bed4 c3be 779b b53e 9fe2 87be
00000370: a9b7 29be 1b31 473d 5ecb 21be 5542 893e
00000380: dbb3 523e b8a0 9abd 4e1e 093e d5d9 67be
00000390: d1fe 0d3e 0ed8 01be 8c39 91be 655e ac3e
000003a0: 7ed7 ccba f945 d4bd 1e40 c43e b2bc abbe
000003b0: 53d8 203e 2983 ac3d 1501 483d 1a43 943e
000003c0: 80fb 793d 7945 0d3e e088 183e 57aa b33e
000003d0: 7fef 7f3e a49b 813e f7fb 74be a518 4dbd
000003e0: c73e a93e 398a 67bc e0af 683e 8a27 65be
000003f0: 205f 85bd 4fc3 a33e 39dc a73e a361 3c3d

nn_conv_2.init_weight f4 [3, 60, 20]
0.12830621 -0.022835696 0.22306018 -0.021474112 0.19790322 -0.024547463 -0.12830757 -0.12077053
0.15417711 -0.27924627 -0.10907053 -0.08955043 -0.07805838 -0.21074596 0.28811568 0.052501705
-0.08670731 -0.1853902 0.27173576 0.08055087 -0.30107796 -0.06806779 -0.28210068 -0.30531862
-0.1878408 -0.007204097 0.17001656 -0.06841911 -0.24592453 0.12162486 -0.17155291 -0.2627734
-0.052033257 0.009650879 0.09888864 -0.060961284 0.24659036 0.016103758 0.05587776 0.19634755
0.17049246 0.022408372 0.06432318 0.20453793 -0.13441958 0.02736918 -0.1404935 0.2352519
0.15118308 -0.16164766 0.16106585 -0.2742695 0.16276033 0.074468516 0.1442649 -0.15554102
-0.20395553 0.04857551 -0.11284944 -0.23838806 -0.15015031 -0.15464245 -0.15233964 -0.08721039
0.03523837 -0.19817083 -0.2607627 -0.0080137085 -0.16853708 0.19661345 -0.16819265 -0.2642612
0.111709096 -0.24904457 0.04543004 0.091290124 0.19467121 -0.23837279 0.1862072 0.03561763
0.023380443 0.22199273 0.02918065 -0.20679864 0.09942185 0.1147661 0.03437957 0.22331567
-0.25989467 0.11944576 -0.14471732 0.112423554 -0.08021417 0.10899982 -0.027341815 -0.16174938
0.077049464 -0.17816566 -0.22053729 0.27535084 0.14671823 0.18792391 -0.22351341 -0.28993613
-0.15033366 0.23004179 0.25676566 -0.021432921 -0.08339363 0.082399696 -0.12008036 -0.015382826
0.1520321 0.18970864 -0.034505006 0.23734203 0.08554966 -0.18726169 0.17217684 0.21174036
-0.06347524 0.07423748 -0.15820989 0.05535408 0.21024637 -0.048116602 -0.1702214 0.12867798
-0.25642118 0.051545694 -0.23553374 -0.03830441 -0.26857275 -0.19617006 -0.054317977 0.20294037
0.20906377 0.16321832 -0.19894023 -0.12993574 -0.23474506 -0.19818453 -0.1394196 -0.29941687
-0.260781 -0.021669436 0.17557429 -0.26040116 0.25505692 -0.10358775 -0.20712355 0.13372278
0.079055004 0.017521117 0.2524178 -0.037098505 0.24974686 -0.18191485 0.14356668 -0.17353061
0.14024392 0.17579256 -0.037571408 -0.08641846 -0.21015082 -0.061084386 0.16201179 -0.1816449
0.07995598 -0.018813828 -0.2091886 -0.04455595 -0.09583303 0.11910592 0.017614191 -0.1345635
-0.053268936 -0.0069735427 0.010634051 0.27876917 0.07683488 -0.037095305 -0.020501282 -0.22476342
-0.12564248 0.19356899 -0.23674875 0.21239674 -0.2421814 -0.16445225 0.15125349 -0.10807359
0.0845495 -0.21058238 0.18308954 -0.15379103 0.2723728 0.03050688 0.084564015 -0.02745149
-0.040500835 0.16793191 -0.14348336 0.09325964 -0.23516169 0.10277312 -0.14489955 -0.14568043
-0.22235553 -0.0060179066 -0.093424365 -0.046471156 0.07529523 -0.108638205 0.13569133 -0.19531094
-0.1351634 0.092731334 -0.22700854 -0.15897436 0.24040276 0.18160412 0.024288727 -0.29574153
0.23851945 -0.16533571 -0.2533463 -0.22755548 -0.2760244 0.028990578 0.17165111 -0.021809418
0.16771369 0.0758691 -0.14819245 0.12188177 0.14498657 -0.08543186 -0.24289252 0.009254146
-0.087576255 -0.14236483 0.052409332 -0.25684556 -0.061453756 0.1026477 -0.14772998 -0.23111248
-0.028705005 0.18709068 0.24147676 0.15155496 0.08408096 -0.105234645 0.14594516 0.24795412
00000000: b462 033e ed11 bbbc e369 643e 7aea afbc
00000010: 24a7 4a3e c317 c9bc 0f63 03be 8a56 f7bd
00000020: 9be0 1d3e 5ef9 8ebe 5f60 dfbd 3766 b7bd
00000030: 12dd 9fbd cacd 57be e683 933e 070c 573d
00000040: 9a93 b1bd eed6 3dbe f320 8b3e dbf7 a43d
00000050: e426 9abe 2067 8bbd 806f 90be b952 9cbe
00000060: 5759 40be 5910 ecbb d218 2e3e 511f 8cbd
00000070: a4d3 7bbe 7416 f93d 91ab 2fbe 3c8a 86be
00000080: d320 55bd b81e 1e3c 2186 ca3d 8ab2 79bd
00000090: 2f82 7c3e 07ec 833c 14e0 643d 550f 493e
000000a0: 9395 2e3e c391 b73c dfbb 833d 6472 513e
000000b0: 49a5 09be 5535 e03c 87dd 0fbe e0e5 703e
000000c0: bdcf 1a3e f786 25be 72ee 243e 0d6d 8cbe
000000d0: a5aa 263e f382 983d 2eba 133e 2546 1fbe
000000e0: b8d9 50be 1df7 463d 9b1d e7bd 001c 74be
000000f0: 01c1 19be 975a 1ebe ecfe 1bbe 5c9b b2bd
00000100: 1c56 103d 4bed 4abe b082 85be ee4b 03bc
00000110: fc94 2cbe 0955 493e b23a 2cbe 3e4d 87be
00000120: bdc7 e43d 8a05 7fbe da14 3a3d 51f6 ba3d
00000130: e457 473e ff17 74be 1aad 3e3e cbe3 113d
00000140: 5888 bf3c 1052 633e 420c ef3c 06c3 53be
00000150: af9d cb3d 7d0a eb3d 98d1 0c3d ddac 643e
00000160: ea10 85be fb9f f43d c730 14be 523e e63d
00000170: 5447 a4bd 4c3b df3d f1fb dfbc a1a1 25be
00000180: 1ccc 9d3d 0f71 36be 87d4 61be c9fa 8c3e
00000190: 4e3d 163e 206f 403e b3e0 64be 8272 94be
000001a0: 11f1 19be 1390 6b3e ca76 833e 1894 afbc
000001b0: 48ca aabd 2cc1 a83d b1ec f5bd 4008 7cbc
000001c0: 4eae 1b3e fb42 423e 1f55 0dbd ca09 733e
000001d0: a934 af3d 87c1 3fbe 204f 303e 77d2 583e
000001e0: 4eff 81bd d209 983d c601 22be f6ba 623d
000001f0: d34a 573e ea15 45bd 854e 2ebe 29c4 033e
00000200: a349 83be 9421 533d c22f 71be 16e5 1cbd
00000210: 5e82 89be cee0 48be 877c 5ebd 9acf 4f3e
00000220: d014 563e b422 273e fdb6 4bbe e00d 05be
00000230: 0261 70be e3f0 4abe 03c4 0ebe 2b4d 99be
00000240: 1685 85be 1a84 b1bc bfc9 333e 4d53 85be
00000250: d296 823e d025 d4bd 3218 54be a0ee 083e
00000260: 97e7 a13d 7288 8f3c e83c 813e 9af4 17bd
00000270: a4bd 7f3e e347 3abe 2503 133e 02b2 31be
00000280: 1a9c 0f3e f702 343e 7ae4 19bd 29fc b0bd
00000290: c731 57be 9f33 7abd 6be6 253e 1f01 3abe
000002a0: f6bf a33d 751f 9abc 8935 56be 4d80 36bd
000002b0: 1c44 c4bd ceed f33d a34b 903c 04cb 09be
000002c0: 8730 5abd 5182 e4bb 713a 2e3c d5ba 8e3e
000002d0: 9b5b 9d3d 3ff1 17bd 4ef2 a7bc 6228 66be
000002e0: 6ca8 00be f336 463e 446e 72be 887e 593e
000002f0: 67fe 77be 2c66 28be 32e2 1a3e b055 ddbd
00000300: 4a28 ad3d e8a2 57be d37b 3b3e 657b 1dbe
00000310: 7374 8b3e 90e9 f93c e62f ad3d f2e1 e0bc
00000320: 34e4 25bd 58f6 2b3e 4ded 12be e9fe be3d
00000330: 3ace 70be b77a d23d 8c60 14be 402d 15be
00000340: 2bb1 63be dc31 c5bb 4655 bfbd 8a58 3ebd
00000350: 6334 9a3d b57d debd abf2 0a3e 97ff 47be
00000360: 4668 0abe ede9 bd3d ed74 68be 2dca 22be
00000370: 242c 763e 6ef6 393e 27f9 c63c 6f6b 97be
00000380: 713e 743e c44d 29be 9bb6 81be 4e04 69be
00000390: 1253 8dbe a67d ed3c 4fc5 2f3e aaa9 b2bc
000003a0: 23bd 2b3e 4261 9b3d c3bf 17be 269d f93d
000003b0: 5c77 143e e6f6 aebd d1b8 78be b49e 173c
000003c0: 2e5b b3bd 16c8 11be 2bab 563d 4381 83be
000003d0: efb6 7bbd f538 d23d 8746 17be c0a8 6cbe
000003e0: c226 ebbc b394 3f3e af45 773e 3931 1b3e
000003f0: a332 ac3d 4385 d7bd a672 153e afe7 7d3e

nn_conv_2.root_weight f4 [7, 3, 60, 20]
-0.018363116 -0.22218789 0.06991706 -0.07191194 0.25045577 -0.21060991 -0.18700463 -0.010043823
-0.24430896 0.20087305 0.009400638 0.04523018 -0.217596 -0.09311472 0.09914696 -0.06000403
0.084301054 -0.039884415 0.26790333 -0.2710735 0.22054972 -0.00769392 0.1071861 -0.12563832
0.115435116 0.06536816 0.19276494 -0.14108184 0.08816094 -0.18206501 -0.15710099 0.12089977
-0.22999428 -0.08420501 -0.15921126 0.08700301 0.23607588 0.032113764 -0.053551145 -0.19401866
0.18818553 0.086168066 -0.17827992 0.10963976 -0.053018846 0.08566605 0.06294478 0.015457326
-0.13303666 0.08557013 0.2180313 -0.2301554 0.18185471 -0.10369493 0.17788036 -0.14600581
-0.10332036 -0.08820572 -0.14489193 0.11063904 0.16743074 0.22401884 -0.104520716 -0.20811869
0.036448777 0.06807566 0.07088281 0.25976956 0.10469829 0.09812626 -0.24339803 -0.01366625
-0.2013072 -0.20472276 -0.015789952 0.1813158 -0.19581364 0.25638917 0.16846053 0.17488883
0.15061504 -0.04600279 -0.104499064 -0.23220906 -0.08213944 0.21716155 0.18049346 -0.058885172
-0.20478107 0.15245037 0.026226867 -0.22345577 -0.014142029 -0.15323225 -0.20067437 0.24229494
0.07577573 -0.05176817 0.009637887 -0.1496236 0.031905003 0.014125846 0.025974337 -0.06983664
-0.2085907 0.20689118 0.109094866 0.22453214 0.20131718 -0.18749174 0.17358041 -0.12724282
-0.13033158 0.26402304 -0.15496932 -0.011495821 -0.24024981 -0.20194976 -0.03090746 0.19915898
-0.12371768 -0.1310312 -0.045801193 -0.08712961 0.14229718 -0.19468114 -0.16234614 -0.0476067
0.15888695 0.2303133 -0.112549916 -0.13739818 0.07106613 0.24885866 -0.106342845 -0.007659412
0.2729884 0.24943262 0.24341793 -0.23594537 0.21414602 0.23923998 0.24108462 -0.16616806
-0.09313406 0.058352977 -0.16386855 -0.111216575 0.21580136 0.052352227 0.101053886 -0.20090139
0.16154309 -0.27539137 -0.24181554 -0.013469764 0.22308275 -0.22942223 -0.19733898 -0.15652852
-0.041598987 -0.1863116 -0.22312051 0.007540579 -0.18769932 -0.15107073 0.03814106 0.268395
0.07264879 -0.04215992 0.04390747 -0.27379164 -0.034763206 0.0819981 0.04220059 0.13500592
0.16350588 0.18559378 0.27197295 -0.06406709 -0.2425484 0.22675297 0.010121801 -0.110637486
0.24448389 0.0049695666 0.019883685 0.45490256 -0.08753492 -0.18039988 -0.23238397 -0.14256541
0.07986275 -0.16326581 0.13670358 -0.38263488 -0.30359113 0.00423182 -0.18000296 -0.1856476
-0.04278358 0.09618567 0.012603875 -0.1667174 -0.27523115 0.21693896 0.15947503 0.03991278
0.02311517 0.0775314 -0.00015938778 0.26276904 -0.22390305 -0.021764737 0.098407425 0.096966974
0.045310013 0.11769583 0.07964125 0.025093814 0.014526518 0.20505519 0.049950875 -0.16621234
0.1599281 0.14921378 -0.040361732 0.24769363 -0.1667554 0.036375426 -0.26989833 0.20722485
0.24687412 -0.18409291 0.03871161 0.21289471 0.089110576 0.26936316 0.14109775 0.0468236
-0.1348619 -0.23555991 0.16229093 -0.06861326 -0.111298285 -0.042601284 -0.16974692 -0.24143794
0.031419717 0.23518026 0.23680925 0.10594594 -0.119340844 -0.26277748 -0.19572116 -0.15184613
00000000: 3f6e 96bc 3985 63be ad30 8f3d 9146 93bd
00000010: bd3b 803e 20aa 57be 247e 3fbe d98e 24bc
00000020: 212c 7abe aab1 4d3e 2205 1a3c 4843 393d
00000030: 7cd1 5ebe eeb2 bebd 900d cb3d c9c6 75bd
00000040: 08a6 ac3d d75d 23bd a02a 893e 25ca 8abe
00000050: c9d7 613e 471d fcbb 6384 db3d 55a7 00be
00000060: 3f69 ec3d bedf 853d 2c64 453e c277 10be
00000070: b98d b43d 406f 3abe 15df 20be 4c9a f73d
00000080: 9f83 6bbe ad73 acbd 4708 23be a22e b23d
00000090: e0bd 713e b989 033d 7258 5bbd d4ac 46be
000000a0: b5b3 403e e278 b03d 038f 36be cf8a e03d
000000b0: 4a2a 59bd af71 af3d 31e9 803d b940 7d3c
000000c0: c33a 08be 643f af3d 9943 5f3e dbad 6bbe
000000d0: 1f38 3a3e 025e d4bd 4526 363e 8c82 15be
000000e0: a099 d3bd 33a5 b4bd 8d5e 14be b996 e23d
000000f0: f772 2b3e 3265 653e f50e d6bd 111d 55be
00000100: 504b 153d 406b 8b3d 022b 913d 8400 853e
00000110: 0f6c d63d 6cf6 c83d 553d 79be 68e8 5fbc
00000120: 7a23 4ebe d8a2 51be ee59 81bc d9aa 393e
00000130: 5f83 48be 7145 833e eb80 2c3e 0f16 333e
00000140: d43a 1a3e 6c6d 3cbd 9b03 d6bd 36c8 6dbe
00000150: b938 a8bd 995f 5e3e 47d3 383e 9431 71bd
00000160: 21b2 51be f31b 1c3e bad9 d63c 97d1 64be
00000170: f8b3 67bc eae8 1cbe 957d 4dbe 2a1c 783e
00000180: 4e30 9b3d dc0a 54bd 3ae8 1d3c ee36 19be
00000190: d2ae 023d 1870 673c 22c8 d43c 8306 8fbd
000001a0: cd98 55be 48db 533e 216d df3d c1eb 653e
000001b0: 1726 4e3e d6fd 3fbe 10bf 313e f14b 02be
000001c0: a475 05be 072e 873e 47b0 1ebe f858 3cbc
000001d0: 0c04 76be ebcb 4ebe a431 fdbc 55f0 4b3e
000001e0: b25f fdbd 0b2d 06be 089a 3bbd 0271 b2bd
000001f0: 5ab6 113e 7e5a 47be 113e 26be 3eff 42bd
00000200: 43b3 223e 40d7 6b3e 9280 e6bd 1cb2 0cbe
00000210: 1f8b 913d ced4 7e3e 47ca d9bd cefb fabb
00000220: 23c5 8b3e 446b 7f3e 8d42 793e aa9b 71be
00000230: 1849 5b3e 53fb 743e e3de 763e f627 2abe
00000240: 12bd bebd 8803 6f3d 28cd 27be 84c5 e3bd
00000250: 08fb 5c3e 4a6f 563d 57f5 ce3d 18b9 4dbe
00000260: 8d6b 253e 1900 8dbe 7e9e 77be 49b0 5cbc
00000270: ce6f 643e a9ed 6abe 3b13 4abe 0349 20be
00000280: b363 2abd 78c8 3ebe b479 64be f616 f73b
00000290: 4034 40be 49b2 1abe cd39 1c3d 126b 893e
000002a0: e4c8 943d e1af 2cbd 52d8 333d 6b2e 8cbe
000002b0: dd63 0ebd 9fee a73d 87da 2c3d fe3e 0a3e
000002c0: 166e 273e 4c0c 3e3e 0a40 8b3e 9b35 83bd
000002d0: 9c5e 78be ee31 683e e9d5 253c e895 e2bd
000002e0: fc59 7a3e bfd7 a23b 1ce3 a23c fde8 e83e
000002f0: 8245 b3bd bfba 38be 10f6 6dbe abfc 11be
00000300: 158f a33d 272f 27be 06fc 0b3e b8e8 c3be
00000310: 4c70 9bbe 14ab 8a3b b252 38be 681a 3ebe
00000320: d63d 2fbd fefc c43d 7c80 4e3c f7b7 2abe
00000330: 19eb 8cbe 3f25 5e3e 6c4d 233e 957b 233d
00000340: 065c bd3c c8c8 9e3d 5521 27b9 aa89 863e
00000350: d746 65be f64b b2bc d589 c93d 9f96 c63d
00000360: fe96 393d 830a f13d f41a a33d 8b91 cd3c
00000370: a200 6e3c fdf9 513e 4a99 4c3d 9133 2abe
00000380: 31c4 233e 7fcb 183e 5852 25bd 66a3 7d3e
00000390: edc1 2abe 66fe 143d 1d30 8abe c032 543e
000003a0: 92cc 7c3e da82 3cbe 1190 1e3d 1201 5a3e
000003b0: 9b7f b63d f8e9 893e ee7b 103e 1aca 3f3d
000003c0: 3d19 0abe 9e36 71be 982f 263e 1c85 8cbd
000003d0: 5bf0 e3bd af7e 2ebd 23d2 2dbe 823b 77be
000003e0: f6b1 003d 18d3 703e 207e 723e 2ffa d83d
000003f0: f968 f4bd c58a 86be 216b 48be 8d7d 1bbe

nn_conv_2.bias f4 [7, 3, 1, 20]
-0.027444595 -0.014957646 -0.02356451 -0.0330429 -0.0028762277 -0.0074156336 -0.033687223 -0.026348544
-0.008312859 -0.08302851 -0.0026559613 -0.0068496526 -0.0016074571 -0.0023620052 0.017135562 0.09095594
0.084341444 -0.0015962503 0.029056802 0.043179985 -0.030274648 0.06945051 -0.04174474 0.052411932
0.0169668 -0.013203369 -0.011251474 -0.005283523 -0.01771638 -0.030473897 -0.016523892 0.0010732528
-0.0072394097 -0.01904077 0.02315126 0.0052255513 -0.034745567 0.13492067 -0.005125687 -0.023399882
0.050487608 -0.08604318 -0.010981975 -0.029701436 0.036703434 -0.0064038597 0.02720935 0.019615341
0.04569689 0.0017825756 0.020735493 0.038141325 0.014712877 -0.0063624694 0.035307504 0.03903562
0.04459535 0.004959463 0.029028304 0.036100518 0.046363633 0.34870473 -0.0070726085 0.04788191
0.12864053 0.06985454 0.039005384 0.031217404 -0.015486032 0.03599407 0.10339046 -0.007859049
0.0042760978 0.029956881 0.026885284 0.02188789 0.08478267 0.040165935 -0.012960454 -0.029100837
-0.01850286 -0.011402936 -0.016195027 -0.04397867 -0.0084854495 -0.019774346 -0.054858085 -0.023579845
-0.11401504 0.05779453 0.058392808 -0.007356663 -0.02325857 -0.0040082023 0.047701493 0.058528524
-0.03009822 -0.038770862 -0.03537086 -0.021416124 0.0026414818 -0.01058578 0.039527077 0.026965437
-0.05105288 0.02950965 -0.008812723 -0.017333906 -0.056608874 0.026127307 0.044560436 0.0032086722
-0.038273092 -0.027553549 0.13338959 0.025667889 0.065197006 0.03403197 -0.03844739 0.050256632
0.02074827 0.045993768 -0.071711816 -0.066856176 -0.030334374 0.05920305 0.003465639 -0.0090246955
0.004767002 -0.060963515 0.08081059 0.004180235 -0.028532054 0.0405381 -0.035414334 -0.024682341
0.020415168 0.030205468 -0.005845099 0.04533091 -0.014709083 -0.048949886 -0.05653083 0.048733022
0.007501615 0.026114585 -0.040823277 0.040056728 -0.0066535696 0.05120401 0.012111397 0.0
0.0900719 0.016787376 0.033194378 0.020027222 0.09532358 0.022648787 -0.041142296 -0.012046333
0.34133303 0.043894947 0.041660056 0.063954994 0.07086778 -0.021467522 0.07491693 -0.021234734
-0.021571998 -0.023792086 -0.061095636 0.018915638 0.043757256 -0.017607214 0.020707458 0.33393493
-0.017477786 0.0 -0.045956686 0.0 0.0022410972 0.020173972 0.011290761 0.02430358
0.008197594 -0.010019053 -0.012109553 0.12351959 0.018169127 0.08151469 0.029144593 0.032087937
0.22643377 0.047098026 0.012181642 -0.049344435 -0.01732527 0.06682472 -0.028016666 -0.0063986555
-0.022098528 -0.057432093 -0.0117684025 -0.0039180624 0.07375045 0.11248427 0.03604977 -0.013774282
0.014434151 0.0716671 -0.029795915 0.051235534 -0.04607948 -0.00026735198 -0.04326039 0.1914608
0.01128963 0.11313803 -0.015945772 0.049625516 0.058731955 -0.036336746 0.040532753 0.019350864
-0.020852512 -0.0413409 -0.00684217 -0.028791757 0.23655827 -0.035921767 0.014867489 0.13428688
-0.04487537 -0.013431509 0.036738597 0.112033926 0.18088023 -0.032242656 0.093557335 -0.032104835
0.023437653 0.045206603 -0.0007293143 -0.030601794 -0.046092298 -0.029411158 -0.040905327 -0.0493151
0.03912032 0.0527408 0.115746215 0.0033501887 -0.021866797 0.013860071 0.10135718 0.015507198
00000000: 7dd3 e0bc ea10 75bc 5c0a c1bc fe57 07bd
00000010: 187f 3cbb d8fe f2bb 9dfb 09bd e7d8 d7bc
00000020: a832 08bc da0a aabd a30f 2ebb 0d73 e0bb
00000030: 4fb1 d2ba dfcb 1abb e15f 8c3c 1c47 ba3d
00000040: 35bb ac3d 4639 d1ba 8808 ee3c 7fdd 303d
00000050: 8a02 f8bc 123c 8e3d 88fc 2abd e5ad 563d
00000060: f5fd 8a3c f252 58bc 1a58 38bc 6721 adbb
00000070: f121 91bc 65a4 f9bc 1d5d 87bc 63ac 8c3a
00000080: 9238 edbb 64fb 9bbc b6a7 bd3c 1a3b ab3b
00000090: 5e51 0ebd a528 0a3e 61f5 a7bb 1cb1 bfbc
000000a0: 18cc 4e3d 6837 b0bd beed 33bc 6d50 f3bc
000000b0: 5756 163d 78d7 d1bb 25e6 de3c 5ab0 a03c
000000c0: aa2c 3b3d 50a5 e93a 7bdd a93c 143a 1c3d
000000d0: 470e 713c 437c d0bb 9a9e 103d d0e3 1f3d
000000e0: 9da9 363d fe82 a23b c4cc ed3c 23de 133d
000000f0: cbe7 3d3d 6d89 b23e 57c1 e7bb d21f 443d
00000100: 58ba 033e e60f 8f3d 1cc4 1f3d a4bb ff3c
00000110: 20b9 7dbc 856e 133d 61be d33d 3ec3 00bc
00000120: 821e 8c3b 2268 f53c 873e dc3c 3b4e b33c
00000130: 89a2 ad3d 0985 243d 1658 54bc e164 eebc
00000140: 4f93 97bc 61d3 3abc 6fab 84bc fa22 34bd
00000150: 8e06 0bbc cffd a1bc dfb2 60bd 852a c1bc
00000160: b880 e9bd f5b9 6c3d 4c2d 6f3d 2910 f1bb
00000170: c288 bebc 3d57 83bb a462 433d 9bbb 6f3d
00000180: 8b90 f6bc 32ce 1ebd 09e1 10bd de70 afbc
00000190: b61c 2d3b fb6f 2dbc 25e7 213d 9fe6 dc3c
000001a0: d31c 51bd 39be f13c 3d63 10bc d6ff 8dbc
000001b0: b5de 67bd ef08 d63c 0185 363d 9648 523b
000001c0: 3fc4 1cbd fbb7 e1bc 4897 083e 7745 d23c
000001d0: 0286 853d 1b65 0b3d 037b 1dbd e6d9 4d3d
000001e0: 47f8 a93c f663 3c3d a5dd 92bd e4eb 88bd
000001f0: cb7f f8bc e67e 723d c61f 633b 51dc 13bc
00000200: 8334 9c3b e1b4 79bd 0680 a53d 5afa 883b
00000210: 0ebc e9bc 470b 263d 9f0e 11bd 9f32 cabc
00000220: b63d a73c 7571 f73c 3f88 bfbb e7ac 393d
00000230: 5efe 70bc ad7f 48bd df8c 67bd 479c 473d
00000240: 1cd0 f53b 41ee d53c 4f36 27bd 8612 243d
00000250: 3006 dabb 4cbb 513d e26e 463c 0000 0000
00000260: 9e77 b83d ae85 893c d4f6 073d 2110 a43c
00000270: 0239 c33d f389 b93c d384 28bd fc5d 45bc
00000280: 34c3 ae3e 30cb 333d bca3 2a3d d6fa 823d
00000290: 2023 913d a8dc afbc 0c6e 993d 77f4 adbc
000002a0: c2b7 b0bc 9fe7 c2bc 6b3f 7abd f8f4 9a3c
000002b0: cf3a 333d 013d 90bc b0a2 a93c 85f9 aa3e
000002c0: 932d 8fbc 0000 0000 143d 3cbd 0000 0000
000002d0: 5fdf 123b e343 a53c e2fc 383c 4d18 c73c
000002e0: 344f 063c f426 24bc 2667 46bc d7f7 fc3d
000002f0: 6cd7 943c 2cf1 a63d a4c0 ee3c a46e 033d
00000300: 41de 673e dce9 403d 8395 473c 641d 4abd
00000310: baed 8dbc 66db 883d 3583 e5bc d0ab d1bb
00000320: f907 b5bc ea3d 6bbd 42d0 40bc 1763 80bb
00000330: 7a0a 973d 275e e63d eca8 133d 87ad 61bc
00000340: 387d 6c3c 33c6 923d 9016 f4bc 5adc 513d
00000350: d6bd 3cbd 602b 8cb9 cf31 31bd 4d0e 443e
00000360: 24f8 383c e9b4 e73d b5a0 82bc 2044 4b3d
00000370: eb90 703d d7d5 14bd ac05 263d b485 9e3c
00000380: e3d2 aabc 1355 29bd 4834 e0bb b1dc ebbc
00000390: 553c 723e b422 13bd c596 733c 8082 093e
000003a0: 3ccf 37bd d50f 5cbc 367b 163d 0b72 e53d
000003b0: ab38 393e e010 04bd fd9a bf3d 5c80 03bd
000003c0: 5200 c03c 8f2a 393d 742f 3fba 9db0 fabc
000003d0: 47cb 3cbd abef f0bc 588c 27bd a1fe 49bd
000003e0: a13c 203d bd06 583d 5a0c ed3d d78e 5b3b
000003f0: ff21 b3bc 5a15 633c 5a94 cf3d e711 7e3c
